…
  CHECKPOINT_TYPE: pytorch
  DATASET: EpicSounds
  ENABLE: True
  NUM_ENSEMBLE_VIEWS: 5
  SAVE_RESULTS_PATH: 
TRAIN:
  AUTO_RESUME: True
  BATCH_SIZE: 128
  CHECKPOINT_CLEAR_NAME_PATTERN: ('module.',)
  CHECKPOINT_EPOCH_RESET: True
  CHECKPOINT_FILE_PATH: 
  CHECKPOINT_INFLATE: False
  CHECKPOINT_PERIOD: 1
  CHECKPOINT_TYPE: pytorch
  DATASET: EpicSounds
  ENABLE: False
  EVAL_PERIOD: 2
  START_EPOCH: 0
WANDB:
  ENABLE: False
  RUN_ID: 
[05/05 19:00:01][INFO] misc.py-157: Model:
DistributedDataParallel(
  (module): SlowFastAudio(
    (s1): VideoModelStem(
      (pathway0_stem): ResNetBasicStem(
        (conv): Conv2d(1, 64, kernel_size=(1, 7), stride=(2, 2), padding=(0, 3), bias=False)
        (bn): SyncBatchNorm(64, eps=1e-05, momentum=0.1, affine=True, track_running_stats=True)
        (relu): ReLU(inplace=True)
        (pool_layer): MaxPool2d(kernel_size=[3, 3], stride=[2, 2], padding=[1, 1], dilation=1, ceil_mode=False)
      )
      (pathway1_stem): ResNetBasicStem(
        (conv): Conv2d(1, 8, kernel_size=(5, 7), stride=(2, 2), padding=(2, 3), bias=False)
        (bn): SyncBatchNorm(8, eps=1e-05, momentum=0.1, affine=True, track_running_stats=True)
        (relu): ReLU(inplace=True)
        (pool_layer): MaxPool2d(kernel_size=[3, 3], stride=[2, 2], padding=[1, 1], dilation=1, ceil_mode=False)
      )
    )
    (s1_fuse): FuseFastToSlow(
      (conv_f2s): Conv2d(8, 16, kernel_size=(7, 1), stride=(4, 1), padding=(3, 0), bias=False)
      (bn): SyncBatchNorm(16, eps=1e-05, momentum=0.1, affine=True, track_running_stats=True)
      (relu): ReLU(inplace=True)
    )
    (s2): ResStage(
      (pathway0_res0): ResBlock(
        (branch1): Conv2d(80, 256, kernel_size=(1, 1), stride=(1, 1), bias=False)
        (branch1_bn): SyncBatchNorm(256, eps=1e-05, momentum=0.1, affine=True, track_running_stats=True)
        (branch2): BottleneckTransform(
          (a): Conv2d(80, 64, kernel_size=(1, 1), stride=(1, 1), bias=False)
          (a_bn): SyncBatchNorm(64, eps=1e-05, momentum=0.1, affine=True, track_running_stats=True)
          (a_relu): ReLU(inplace=True)
          (b): Conv2d(64, 64, kernel_size=(1, 3), stride=(1, 1), padding=(0, 1), bias=False)
          (b_bn): SyncBatchNorm(64, eps=1e-05, momentum=0.1, affine=True, track_running_stats=True)
          (b_relu): ReLU(inplace=True)
          (c): Conv2d(64, 256, kernel_size=(1, 1), stride=(1, 1), bias=False)
          (c_bn): SyncBatchNorm(256, eps=1e-05, momentum=0.1, affine=True, track_running_stats=True)
        )
        (relu): ReLU(inplace=True)
      )
      (pathway0_res1): ResBlock(
        (branch2): BottleneckTransform(
          (a): Conv2d(256, 64, kernel_size=(1, 1), stride=(1, 1), bias=False)
          (a_bn): SyncBatchNorm(64, eps=1e-05, momentum=0.1, affine=True, track_running_stats=True)
          (a_relu): ReLU(inplace=True)
          (b): Conv2d(64, 64, kernel_size=(1, 3), stride=(1, 1), padding=(0, 1), bias=False)
          (b_bn): SyncBatchNorm(64, eps=1e-05, momentum=0.1, affine=True, track_running_stats=True)
          (b_relu): ReLU(inplace=True)
          (c): Conv2d(64, 256, kernel_size=(1, 1), stride=(1, 1), bias=False)
          (c_bn): SyncBatchNorm(256, eps=1e-05, momentum=0.1, affine=True, track_running_stats=True)
        )
        (relu): ReLU(inplace=True)
      )
      (pathway0_res2): ResBlock(
        (branch2): BottleneckTransform(
          (a): Conv2d(256, 64, kernel_size=(1, 1), stride=(1, 1), bias=False)
          (a_bn): SyncBatchNorm(64, eps=1e-05, momentum=0.1, affine=True, track_running_stats=True)
          (a_relu): ReLU(inplace=True)
          (b): Conv2d(64, 64, kernel_size=(1, 3), stride=(1, 1), padding=(0, 1), bias=False)
          (b_bn): SyncBatchNorm(64, eps=1e-05, momentum=0.1, affine=True, track_running_stats=True)
          (b_relu): ReLU(inplace=True)
          (c): Conv2d(64, 256, kernel_size=(1, 1), stride=(1, 1), bias=False)
          (c_bn): SyncBatchNorm(256, eps=1e-05, momentum=0.1, affine=True, track_running_stats=True)
        )
        (relu): ReLU(inplace=True)
      )
      (pathway1_res0): ResBlock(
        (branch1): Conv2d(8, 32, kernel_size=(1, 1), stride=(1, 1), bias=False)
        (branch1_bn): SyncBatchNorm(32, eps=1e-05, momentum=0.1, affine=True, track_running_stats=True)
        (branch2): BottleneckTransform(
          (a): Conv2d(8, 8, kernel_size=(3, 1), stride=(1, 1), padding=(1, 0), bias=False)
          (a_bn): SyncBatchNorm(8, eps=1e-05, momentum=0.1, affine=True, track_running_stats=True)
          (a_relu): ReLU(inplace=True)
          (b): Conv2d(8, 8, kernel_size=(1, 3), stride=(1, 1), padding=(0, 1), bias=False)
          (b_bn): SyncBatchNorm(8, eps=1e-05, momentum=0.1, affine=True, track_running_stats=True)
          (b_relu): ReLU(inplace=True)
          (c): Conv2d(8, 32, kernel_size=(1, 1), stride=(1, 1), bias=False)
          (c_bn): SyncBatchNorm(32, eps=1e-05, momentum=0.1, affine=True, track_running_stats=True)
        )
        (relu): ReLU(inplace=True)
      )
      (pathway1_res1): ResBlock(
        (branch2): BottleneckTransform(
          (a): Conv2d(32, 8, kernel_size=(3, 1), stride=(1, 1), padding=(1, 0), bias=False)
          (a_bn): SyncBatchNorm(8, eps=1e-05, momentum=0.1, affine=True, track_running_stats=True)
          (a_relu): ReLU(inplace=True)
          (b): Conv2d(8, 8, kernel_size=(1, 3), stride=(1, 1), padding=(0, 1), bias=False)
          (b_bn): SyncBatchNorm(8, eps=1e-05, momentum=0.1, affine=True, track_running_stats=True)
          (b_relu): ReLU(inplace=True)
          (c): Conv2d(8, 32, kernel_size=(1, 1), stride=(1, 1), bias=False)
          (c_bn): SyncBatchNorm(32, eps=1e-05, momentum=0.1, affine=True, track_running_stats=True)
        )
        (relu): ReLU(inplace=True)
      )
      (pathway1_res2): ResBlock(
        (branch2): BottleneckTransform(
          (a): Conv2d(32, 8, kernel_size=(3, 1), stride=(1, 1), padding=(1, 0), bias=False)
          (a_bn): SyncBatchNorm(8, eps=1e-05, momentum=0.1, affine=True, track_running_stats=True)
          (a_relu): ReLU(inplace=True)
          (b): Conv2d(8, 8, kernel_size=(1, 3), stride=(1, 1), padding=(0, 1), bias=False)
          (b_bn): SyncBatchNorm(8, eps=1e-05, momentum=0.1, affine=True, track_running_stats=True)
          (b_relu): ReLU(inplace=True)
          (c): Conv2d(8, 32, kernel_size=(1, 1), stride=(1, 1), bias=False)
          (c_bn): SyncBatchNorm(32, eps=1e-05, momentum=0.1, affine=True, track_running_stats=True)
        )
        (relu): ReLU(inplace=True)
      )
    )
    (s2_fuse): FuseFastToSlow(
      (conv_f2s): Conv2d(32, 64, kernel_size=(7, 1), stride=(4, 1), padding=(3, 0), bias=False)
      (bn): SyncBatchNorm(64, eps=1e-05, momentum=0.1, affine=True, track_running_stats=True)
      (relu): ReLU(inplace=True)
    )
    (pathway0_pool): MaxPool2d(kernel_size=[1, 1], stride=[1, 1], padding=[0, 0], dilation=1, ceil_mode=False)
    (pathway1_pool): MaxPool2d(kernel_size=[1, 1], stride=[1, 1], padding=[0, 0], dilation=1, ceil_mode=False)
    (s3): ResStage(
      (pathway0_res0): ResBlock(
        (branch1): Conv2d(320, 512, kernel_size=(1, 1), stride=(1, 2), bias=False)
        (branch1_bn): SyncBatchNorm(512, eps=1e-05, momentum=0.1, affine=True, track_running_stats=True)
        (branch2): BottleneckTransform(
          (a): Conv2d(320, 128, kernel_size=(1, 1), stride=(1, 1), bias=False)
          (a_bn): SyncBatchNorm(128, eps=1e-05, momentum=0.1, affine=True, track_running_stats=True)
          (a_relu): ReLU(inplace=True)
          (b): Conv2d(128, 128, kernel_size=(1, 3), stride=(1, 2), padding=(0, 1), bias=False)
          (b_bn): SyncBatchNorm(128, eps=1e-05, momentum=0.1, affine=True, track_running_stats=True)
          (b_relu): ReLU(inplace=True)
          (c): Conv2d(128, 512, kernel_size=(1, 1), stride=(1, 1), bias=False)
          (c_bn): SyncBatchNorm(512, eps=1e-05, momentum=0.1, affine=True, track_running_stats=True)
        )
        (relu): ReLU(inplace=True)
      )
      (pathway0_res1): ResBlock(
        (branch2): BottleneckTransform(
          (a): Conv2d(512, 128, kernel_size=(1, 1), stride=(1, 1), bias=False)
          (a_bn): SyncBatchNorm(128, eps=1e-05, momentum=0.1, affine=True, track_running_stats=True)
          (a_relu): ReLU(inplace=True)
          (b): Conv2d(128, 128, kernel_size=(1, 3), stride=(1, 1), padding=(0, 1), bias=False)
          (b_bn): SyncBatchNorm(128, eps=1e-05, momentum=0.1, affine=True, track_running_stats=True)
          (b_relu): ReLU(inplace=True)
          (c): Conv2d(128, 512, kernel_size=(1, 1), stride=(1, 1), bias=False)
          (c_bn): SyncBatchNorm(512, eps=1e-05, momentum=0.1, affine=True, track_running_stats=True)
        )
        (relu): ReLU(inplace=True)
      )
      (pathway0_res2): ResBlock(
        (branch2): BottleneckTransform(
          (a): Conv2d(512, 128, kernel_size=(1, 1), stride=(1, 1), bias=False)
          (a_bn): SyncBatchNorm(128, eps=1e-05, momentum=0.1, affine=True, track_running_stats=True)
          (a_relu): ReLU(inplace=True)
          (b): Conv2d(128, 128, kernel_size=(1, 3), stride=(1, 1), padding=(0, 1), bias=False)
          (b_bn): SyncBatchNorm(128, eps=1e-05, momentum=0.1, affine=True, track_running_stats=True)
          (b_relu): ReLU(inplace=True)
          (c): Conv2d(128, 512, kernel_size=(1, 1), stride=(1, 1), bias=False)
          (c_bn): SyncBatchNorm(512, eps=1e-05, momentum=0.1, affine=True, track_running_stats=True)
        )
        (relu): ReLU(inplace=True)
      )
      (pathway0_res3): ResBlock(
        (branch2): BottleneckTransform(
          (a): Conv2d(512, 128, kernel_size=(1, 1), stride=(1, 1), bias=False)
          (a_bn): SyncBatchNorm(128, eps=1e-05, momentum=0.1, affine=True, track_running_stats=True)
          (a_relu): ReLU(inplace=True)
          (b): Conv2d(128, 128, kernel_size=(1, 3), stride=(1, 1), padding=(0, 1), bias=False)
          (b_bn): SyncBatchNorm(128, eps=1e-05, momentum=0.1, affine=True, track_running_stats=True)
          (b_relu): ReLU(inplace=True)
          (c): Conv2d(128, 512, kernel_size=(1, 1), stride=(1, 1), bias=False)
          (c_bn): SyncBatchNorm(512, eps=1e-05, momentum=0.1, affine=True, track_running_stats=True)
        )
        (relu): ReLU(inplace=True)
      )
      (pathway1_res0): ResBlock(
        (branch1): Conv2d(32, 64, kernel_size=(1, 1), stride=(1, 2), bias=False)
        (branch1_bn): SyncBatchNorm(64, eps=1e-05, momentum=0.1, affine=True, track_running_stats=True)
        (branch2): BottleneckTransform(
          (a): Conv2d(32, 16, kernel_size=(3, 1), stride=(1, 1), padding=(1, 0), bias=False)
          (a_bn): SyncBatchNorm(16, eps=1e-05, momentum=0.1, affine=True, track_running_stats=True)
          (a_relu): ReLU(inplace=True)
          (b): Conv2d(16, 16, kernel_size=(1, 3), stride=(1, 2), padding=(0, 1), bias=False)
          (b_bn): SyncBatchNorm(16, eps=1e-05, momentum=0.1, affine=True, track_running_stats=True)
          (b_relu): ReLU(inplace=True)
          (c): Conv2d(16, 64, kernel_size=(1, 1), stride=(1, 1), bias=False)
          (c_bn): SyncBatchNorm(64, eps=1e-05, momentum=0.1, affine=True, track_running_stats=True)
        )
        (relu): ReLU(inplace=True)
      )
      (pathway1_res1): ResBlock(
        (branch2): BottleneckTransform(
          (a): Conv2d(64, 16, kernel_size=(3, 1), stride=(1, 1), padding=(1, 0), bias=False)
          (a_bn): SyncBatchNorm(16, eps=1e-05, momentum=0.1, affine=True, track_running_stats=True)
          (a_relu): ReLU(inplace=True)
          (b): Conv2d(16, 16, kernel_size=(1, 3), stride=(1, 1), padding=(0, 1), bias=False)
          (b_bn): SyncBatchNorm(16, eps=1e-05, momentum=0.1, affine=True, track_running_stats=True)
          (b_relu): ReLU(inplace=True)
          (c): Conv2d(16, 64, kernel_size=(1, 1), stride=(1, 1), bias=False)
          (c_bn): SyncBatchNorm(64, eps=1e-05, momentum=0.1, affine=True, track_running_stats=True)
        )
        (relu): ReLU(inplace=True)
      )
      (pathway1_res2): ResBlock(
        (branch2): BottleneckTransform(
          (a): Conv2d(64, 16, kernel_size=(3, 1), stride=(1, 1), padding=(1, 0), bias=False)
          (a_bn): SyncBatchNorm(16, eps=1e-05, momentum=0.1, affine=True, track_running_stats=True)
          (a_relu): ReLU(inplace=True)
          (b): Conv2d(16, 16, kernel_size=(1, 3), stride=(1, 1), padding=(0, 1), bias=False)
          (b_bn): SyncBatchNorm(16, eps=1e-05, momentum=0.1, affine=True, track_running_stats=True)
          (b_relu): ReLU(inplace=True)
          (c): Conv2d(16, 64, kernel_size=(1, 1), stride=(1, 1), bias=False)
          (c_bn): SyncBatchNorm(64, eps=1e-05, momentum=0.1, affine=True, track_running_stats=True)
        )
        (relu): ReLU(inplace=True)
      )
      (pathway1_res3): ResBlock(
        (branch2): BottleneckTransform(
          (a): Conv2d(64, 16, kernel_size=(3, 1), stride=(1, 1), padding=(1, 0), bias=False)
          (a_bn): SyncBatchNorm(16, eps=1e-05, momentum=0.1, affine=True, track_running_stats=True)
          (a_relu): ReLU(inplace=True)
          (b): Conv2d(16, 16, kernel_size=(1, 3), stride=(1, 1), padding=(0, 1), bias=False)
          (b_bn): SyncBatchNorm(16, eps=1e-05, momentum=0.1, affine=True, track_running_stats=True)
          (b_relu): ReLU(inplace=True)
          (c): Conv2d(16, 64, kernel_size=(1, 1), stride=(1, 1), bias=False)
          (c_bn): SyncBatchNorm(64, eps=1e-05, momentum=0.1, affine=True, track_running_stats=True)
        )
        (relu): ReLU(inplace=True)
      )
    )
    (s3_fuse): FuseFastToSlow(
      (conv_f2s): Conv2d(64, 128, kernel_size=(7, 1), stride=(4, 1), padding=(3, 0), bias=False)
      (bn): SyncBatchNorm(128, eps=1e-05, momentum=0.1, affine=True, track_running_stats=True)
      (relu): ReLU(inplace=True)
    )
    (s4): ResStage(
      (pathway0_res0): ResBlock(
        (branch1): Conv2d(640, 1024, kernel_size=(1, 1), stride=(1, 2), bias=False)
        (branch1_bn): SyncBatchNorm(1024, eps=1e-05, momentum=0.1, affine=True, track_running_stats=True)
        (branch2): BottleneckTransform(
          (a): Conv2d(640, 256, kernel_size=(3, 1), stride=(1, 1), padding=(1, 0), bias=False)
          (a_bn): SyncBatchNorm(256, eps=1e-05, momentum=0.1, affine=True, track_running_stats=True)
          (a_relu): ReLU(inplace=True)
          (b): Conv2d(256, 256, kernel_size=(1, 3), stride=(1, 2), padding=(0, 1), bias=False)
          (b_bn): SyncBatchNorm(256, eps=1e-05, momentum=0.1, affine=True, track_running_stats=True)
          (b_relu): ReLU(inplace=True)
          (c): Conv2d(256, 1024, kernel_size=(1, 1), stride=(1, 1), bias=False)
          (c_bn): SyncBatchNorm(1024, eps=1e-05, momentum=0.1, affine=True, track_running_stats=True)
        )
        (relu): ReLU(inplace=True)
      )
      (pathway0_res1): ResBlock(
        (branch2): BottleneckTransform(
          (a): Conv2d(1024, 256, kernel_size=(3, 1), stride=(1, 1), padding=(1, 0), bias=False)
          (a_bn): SyncBatchNorm(256, eps=1e-05, momentum=0.1, affine=True, track_running_stats=True)
          (a_relu): ReLU(inplace=True)
          (b): Conv2d(256, 256, kernel_size=(1, 3), stride=(1, 1), padding=(0, 1), bias=False)
          (b_bn): SyncBatchNorm(256, eps=1e-05, momentum=0.1, affine=True, track_running_stats=True)
          (b_relu): ReLU(inplace=True)
          (c): Conv2d(256, 1024, kernel_size=(1, 1), stride=(1, 1), bias=False)
          (c_bn): SyncBatchNorm(1024, eps=1e-05, momentum=0.1, affine=True, track_running_stats=True)
        )
        (relu): ReLU(inplace=True)
      )
      (pathway0_res2): ResBlock(
        (branch2): BottleneckTransform(
          (a): Conv2d(1024, 256, kernel_size=(3, 1), stride=(1, 1), padding=(1, 0), bias=False)
          (a_bn): SyncBatchNorm(256, eps=1e-05, momentum=0.1, affine=True, track_running_stats=True)
          (a_relu): ReLU(inplace=True)
          (b): Conv2d(256, 256, kernel_size=(1, 3), stride=(1, 1), padding=(0, 1), bias=False)
          (b_bn): SyncBatchNorm(256, eps=1e-05, momentum=0.1, affine=True, track_running_stats=True)
          (b_relu): ReLU(inplace=True)
          (c): Conv2d(256, 1024, kernel_size=(1, 1), stride=(1, 1), bias=False)
          (c_bn): SyncBatchNorm(1024, eps=1e-05, momentum=0.1, affine=True, track_running_stats=True)
        )
        (relu): ReLU(inplace=True)
      )
      (pathway0_res3): ResBlock(
        (branch2): BottleneckTransform(
          (a): Conv2d(1024, 256, kernel_size=(3, 1), stride=(1, 1), padding=(1, 0), bias=False)
          (a_bn): SyncBatchNorm(256, eps=1e-05, momentum=0.1, affine=True, track_running_stats=True)
          (a_relu): ReLU(inplace=True)
          (b): Conv2d(256, 256, kernel_size=(1, 3), stride=(1, 1), padding=(0, 1), bias=False)
          (b_bn): SyncBatchNorm(256, eps=1e-05, momentum=0.1, affine=True, track_running_stats=True)
          (b_relu): ReLU(inplace=True)
          (c): Conv2d(256, 1024, kernel_size=(1, 1), stride=(1, 1), bias=False)
          (c_bn): SyncBatchNorm(1024, eps=1e-05, momentum=0.1, affine=True, track_running_stats=True)
        )
        (relu): ReLU(inplace=True)
      )
      (pathway0_res4): ResBlock(
        (branch2): BottleneckTransform(
          (a): Conv2d(1024, 256, kernel_size=(3, 1), stride=(1, 1), padding=(1, 0), bias=False)
          (a_bn): SyncBatchNorm(256, eps=1e-05, momentum=0.1, affine=True, track_running_stats=True)
          (a_relu): ReLU(inplace=True)
          (b): Conv2d(256, 256, kernel_size=(1, 3), stride=(1, 1), padding=(0, 1), bias=False)
          (b_bn): SyncBatchNorm(256, eps=1e-05, momentum=0.1, affine=True, track_running_stats=True)
          (b_relu): ReLU(inplace=True)
          (c): Conv2d(256, 1024, kernel_size=(1, 1), stride=(1, 1), bias=False)
          (c_bn): SyncBatchNorm(1024, eps=1e-05, momentum=0.1, affine=True, track_running_stats=True)
        )
        (relu): ReLU(inplace=True)
      )
      (pathway0_res5): ResBlock(
        (branch2): BottleneckTransform(
          (a): Conv2d(1024, 256, kernel_size=(3, 1), stride=(1, 1), padding=(1, 0), bias=False)
          (a_bn): SyncBatchNorm(256, eps=1e-05, momentum=0.1, affine=True, track_running_stats=True)
          (a_relu): ReLU(inplace=True)
          (b): Conv2d(256, 256, kernel_size=(1, 3), stride=(1, 1), padding=(0, 1), bias=False)
          (b_bn): SyncBatchNorm(256, eps=1e-05, momentum=0.1, affine=True, track_running_stats=True)
          (b_relu): ReLU(inplace=True)
          (c): Conv2d(256, 1024, kernel_size=(1, 1), stride=(1, 1), bias=False)
          (c_bn): SyncBatchNorm(1024, eps=1e-05, momentum=0.1, affine=True, track_running_stats=True)
        )
        (relu): ReLU(inplace=True)
      )
      (pathway1_res0): ResBlock(
        (branch1): Conv2d(64, 128, kernel_size=(1, 1), stride=(1, 2), bias=False)
        (branch1_bn): SyncBatchNorm(128, eps=1e-05, momentum=0.1, affine=True, track_running_stats=True)
        (branch2): BottleneckTransform(
          (a): Conv2d(64, 32, kernel_size=(3, 1), stride=(1, 1), padding=(1, 0), bias=False)
          (a_bn): SyncBatchNorm(32, eps=1e-05, momentum=0.1, affine=True, track_running_stats=True)
          (a_relu): ReLU(inplace=True)
          (b): Conv2d(32, 32, kernel_size=(1, 3), stride=(1, 2), padding=(0, 1), bias=False)
          (b_bn): SyncBatchNorm(32, eps=1e-05, momentum=0.1, affine=True, track_running_stats=True)
          (b_relu): ReLU(inplace=True)
          (c): Conv2d(32, 128, kernel_size=(1, 1), stride=(1, 1), bias=False)
          (c_bn): SyncBatchNorm(128, eps=1e-05, momentum=0.1, affine=True, track_running_stats=True)
        )
        (relu): ReLU(inplace=True)
      )
      (pathway1_res1): ResBlock(
        (branch2): BottleneckTransform(
          (a): Conv2d(128, 32, kernel_size=(3, 1), stride=(1, 1), padding=(1, 0), bias=False)
          (a_bn): SyncBatchNorm(32, eps=1e-05, momentum=0.1, affine=True, track_running_stats=True)
          (a_relu): ReLU(inplace=True)
          (b): Conv2d(32, 32, kernel_size=(1, 3), stride=(1, 1), padding=(0, 1), bias=False)
          (b_bn): SyncBatchNorm(32, eps=1e-05, momentum=0.1, affine=True, track_running_stats=True)
          (b_relu): ReLU(inplace=True)
          (c): Conv2d(32, 128, kernel_size=(1, 1), stride=(1, 1), bias=False)
          (c_bn): SyncBatchNorm(128, eps=1e-05, momentum=0.1, affine=True, track_running_stats=True)
        )
        (relu): ReLU(inplace=True)
      )
      (pathway1_res2): ResBlock(
        (branch2): BottleneckTransform(
          (a): Conv2d(128, 32, kernel_size=(3, 1), stride=(1, 1), padding=(1, 0), bias=False)
          (a_bn): SyncBatchNorm(32, eps=1e-05, momentum=0.1, affine=True, track_running_stats=True)
          (a_relu): ReLU(inplace=True)
          (b): Conv2d(32, 32, kernel_size=(1, 3), stride=(1, 1), padding=(0, 1), bias=False)
          (b_bn): SyncBatchNorm(32, eps=1e-05, momentum=0.1, affine=True, track_running_stats=True)
          (b_relu): ReLU(inplace=True)
          (c): Conv2d(32, 128, kernel_size=(1, 1), stride=(1, 1), bias=False)
          (c_bn): SyncBatchNorm(128, eps=1e-05, momentum=0.1, affine=True, track_running_stats=True)
        )
        (relu): ReLU(inplace=True)
      )
      (pathway1_res3): ResBlock(
        (branch2): BottleneckTransform(
          (a): Conv2d(128, 32, kernel_size=(3, 1), stride=(1, 1), padding=(1, 0), bias=False)
          (a_bn): SyncBatchNorm(32, eps=1e-05, momentum=0.1, affine=True, track_running_stats=True)
          (a_relu): ReLU(inplace=True)
          (b): Conv2d(32, 32, kernel_size=(1, 3), stride=(1, 1), padding=(0, 1), bias=False)
          (b_bn): SyncBatchNorm(32, eps=1e-05, momentum=0.1, affine=True, track_running_stats=True)
          (b_relu): ReLU(inplace=True)
          (c): Conv2d(32, 128, kernel_size=(1, 1), stride=(1, 1), bias=False)
          (c_bn): SyncBatchNorm(128, eps=1e-05, momentum=0.1, affine=True, track_running_stats=True)
        )
        (relu): ReLU(inplace=True)
      )
      (pathway1_res4): ResBlock(
        (branch2): BottleneckTransform(
          (a): Conv2d(128, 32, kernel_size=(3, 1), stride=(1, 1), padding=(1, 0), bias=False)
          (a_bn): SyncBatchNorm(32, eps=1e-05, momentum=0.1, affine=True, track_running_stats=True)
          (a_relu): ReLU(inplace=True)
          (b): Conv2d(32, 32, kernel_size=(1, 3), stride=(1, 1), padding=(0, 1), bias=False)
          (b_bn): SyncBatchNorm(32, eps=1e-05, momentum=0.1, affine=True, track_running_stats=True)
          (b_relu): ReLU(inplace=True)
          (c): Conv2d(32, 128, kernel_size=(1, 1), stride=(1, 1), bias=False)
          (c_bn): SyncBatchNorm(128, eps=1e-05, momentum=0.1, affine=True, track_running_stats=True)
        )
        (relu): ReLU(inplace=True)
      )
      (pathway1_res5): ResBlock(
        (branch2): BottleneckTransform(
          (a): Conv2d(128, 32, kernel_size=(3, 1), stride=(1, 1), padding=(1, 0), bias=False)
          (a_bn): SyncBatchNorm(32, eps=1e-05, momentum=0.1, affine=True, track_running_stats=True)
          (a_relu): ReLU(inplace=True)
          (b): Conv2d(32, 32, kernel_size=(1, 3), stride=(1, 1), padding=(0, 1), bias=False)
          (b_bn): SyncBatchNorm(32, eps=1e-05, momentum=0.1, affine=True, track_running_stats=True)
          (b_relu): ReLU(inplace=True)
          (c): Conv2d(32, 128, kernel_size=(1, 1), stride=(1, 1), bias=False)
          (c_bn): SyncBatchNorm(128, eps=1e-05, momentum=0.1, affine=True, track_running_stats=True)
        )
        (relu): ReLU(inplace=True)
      )
    )
    (s4_fuse): FuseFastToSlow(
      (conv_f2s): Conv2d(128, 256, kernel_size=(7, 1), stride=(4, 1), padding=(3, 0), bias=False)
      (bn): SyncBatchNorm(256, eps=1e-05, momentum=0.1, affine=True, track_running_stats=True)
      (relu): ReLU(inplace=True)
    )
    (s5): ResStage(
      (pathway0_res0): ResBlock(
        (branch1): Conv2d(1280, 2048, kernel_size=(1, 1), stride=(1, 2), bias=False)
        (branch1_bn): SyncBatchNorm(2048, eps=1e-05, momentum=0.1, affine=True, track_running_stats=True)
        (branch2): BottleneckTransform(
          (a): Conv2d(1280, 512, kernel_size=(3, 1), stride=(1, 1), padding=(1, 0), bias=False)
          (a_bn): SyncBatchNorm(512, eps=1e-05, momentum=0.1, affine=True, track_running_stats=True)
          (a_relu): ReLU(inplace=True)
          (b): Conv2d(512, 512, kernel_size=(1, 3), stride=(1, 2), padding=(0, 1), bias=False)
          (b_bn): SyncBatchNorm(512, eps=1e-05, momentum=0.1, affine=True, track_running_stats=True)
          (b_relu): ReLU(inplace=True)
          (c): Conv2d(512, 2048, kernel_size=(1, 1), stride=(1, 1), bias=False)
          (c_bn): SyncBatchNorm(2048, eps=1e-05, momentum=0.1, affine=True, track_running_stats=True)
        )
        (relu): ReLU(inplace=True)
      )
      (pathway0_res1): ResBlock(
        (branch2): BottleneckTransform(
          (a): Conv2d(2048, 512, kernel_size=(3, 1), stride=(1, 1), padding=(1, 0), bias=False)
          (a_bn): SyncBatchNorm(512, eps=1e-05, momentum=0.1, affine=True, track_running_stats=True)
          (a_relu): ReLU(inplace=True)
          (b): Conv2d(512, 512, kernel_size=(1, 3), stride=(1, 1), padding=(0, 1), bias=False)
          (b_bn): SyncBatchNorm(512, eps=1e-05, momentum=0.1, affine=True, track_running_stats=True)
          (b_relu): ReLU(inplace=True)
          (c): Conv2d(512, 2048, kernel_size=(1, 1), stride=(1, 1), bias=False)
          (c_bn): SyncBatchNorm(2048, eps=1e-05, momentum=0.1, affine=True, track_running_stats=True)
        )
        (relu): ReLU(inplace=True)
      )
      (pathway0_res2): ResBlock(
        (branch2): BottleneckTransform(
          (a): Conv2d(2048, 512, kernel_size=(3, 1), stride=(1, 1), padding=(1, 0), bias=False)
          (a_bn): SyncBatchNorm(512, eps=1e-05, momentum=0.1, affine=True, track_running_stats=True)
          (a_relu): ReLU(inplace=True)
          (b): Conv2d(512, 512, kernel_size=(1, 3), stride=(1, 1), padding=(0, 1), bias=False)
          (b_bn): SyncBatchNorm(512, eps=1e-05, momentum=0.1, affine=True, track_running_stats=True)
          (b_relu): ReLU(inplace=True)
          (c): Conv2d(512, 2048, kernel_size=(1, 1), stride=(1, 1), bias=False)
          (c_bn): SyncBatchNorm(2048, eps=1e-05, momentum=0.1, affine=True, track_running_stats=True)
        )
        (relu): ReLU(inplace=True)
      )
      (pathway1_res0): ResBlock(
        (branch1): Conv2d(128, 256, kernel_size=(1, 1), stride=(1, 2), bias=False)
        (branch1_bn): SyncBatchNorm(256, eps=1e-05, momentum=0.1, affine=True, track_running_stats=True)
        (branch2): BottleneckTransform(
          (a): Conv2d(128, 64, kernel_size=(3, 1), stride=(1, 1), padding=(1, 0), bias=False)
          (a_bn): SyncBatchNorm(64, eps=1e-05, momentum=0.1, affine=True, track_running_stats=True)
          (a_relu): ReLU(inplace=True)
          (b): Conv2d(64, 64, kernel_size=(1, 3), stride=(1, 2), padding=(0, 1), bias=False)
          (b_bn): SyncBatchNorm(64, eps=1e-05, momentum=0.1, affine=True, track_running_stats=True)
          (b_relu): ReLU(inplace=True)
          (c): Conv2d(64, 256, kernel_size=(1, 1), stride=(1, 1), bias=False)
          (c_bn): SyncBatchNorm(256, eps=1e-05, momentum=0.1, affine=True, track_running_stats=True)
        )
        (relu): ReLU(inplace=True)
      )
      (pathway1_res1): ResBlock(
        (branch2): BottleneckTransform(
          (a): Conv2d(256, 64, kernel_size=(3, 1), stride=(1, 1), padding=(1, 0), bias=False)
          (a_bn): SyncBatchNorm(64, eps=1e-05, momentum=0.1, affine=True, track_running_stats=True)
          (a_relu): ReLU(inplace=True)
          (b): Conv2d(64, 64, kernel_size=(1, 3), stride=(1, 1), padding=(0, 1), bias=False)
          (b_bn): SyncBatchNorm(64, eps=1e-05, momentum=0.1, affine=True, track_running_stats=True)
          (b_relu): ReLU(inplace=True)
          (c): Conv2d(64, 256, kernel_size=(1, 1), stride=(1, 1), bias=False)
          (c_bn): SyncBatchNorm(256, eps=1e-05, momentum=0.1, affine=True, track_running_stats=True)
        )
        (relu): ReLU(inplace=True)
      )
      (pathway1_res2): ResBlock(
        (branch2): BottleneckTransform(
          (a): Conv2d(256, 64, kernel_size=(3, 1), stride=(1, 1), padding=(1, 0), bias=False)
          (a_bn): SyncBatchNorm(64, eps=1e-05, momentum=0.1, affine=True, track_running_stats=True)
          (a_relu): ReLU(inplace=True)
          (b): Conv2d(64, 64, kernel_size=(1, 3), stride=(1, 1), padding=(0, 1), bias=False)
          (b_bn): SyncBatchNorm(64, eps=1e-05, momentum=0.1, affine=True, track_running_stats=True)
          (b_relu): ReLU(inplace=True)
          (c): Conv2d(64, 256, kernel_size=(1, 1), stride=(1, 1), bias=False)
          (c_bn): SyncBatchNorm(256, eps=1e-05, momentum=0.1, affine=True, track_running_stats=True)
        )
        (relu): ReLU(inplace=True)
      )
    )
    (head): ResNetBasicHead(
      (pathway0_avgpool): AvgPool2d(kernel_size=[25, 4], stride=1, padding=0)
      (pathway1_avgpool): AvgPool2d(kernel_size=[100, 4], stride=1, padding=0)
      (dropout): Dropout(p=0.5, inplace=False)
      (projection): Linear(in_features=2304, out_features=44, bias=True)
      (act): Softmax(dim=3)
    )
  )
)
[05/05 19:00:01][INFO] misc.py-158: Params: 26,068,628
[05/05 19:00:01][INFO] misc.py-159: Mem: 0.19670629501342773 MB
[05/05 19:00:05][WARNING] jit_analysis.py-499: Unsupported operator aten::max_pool2d encountered 4 time(s)
[05/05 19:00:05][WARNING] jit_analysis.py-499: Unsupported operator aten::add encountered 32 time(s)
…
